data.pth (torch, 6122 bytes, 6 tensors)

l1.weight f4 [8, 70]
000000 44 34 11 be eb 37 94 3e 99 e4 c7 be 70 83 86 bd
       -0.14180094 0.28948912 -0.39041594 -0.065680385
000010 8a 2c 25 be e2 36 fc 3e 6b e6 42 3e 6b e3 25 be
       -0.16130272 0.49260622 0.1903321 -0.16200034
000020 bf ba 30 bd 21 7d ad 3e ca 2a bf 3d 61 c1 13 3e
       -0.043146845 0.33884528 0.09334333 0.14429237
000030 e2 aa 6e 3e 13 91 06 3e 08 56 d0 3d 7e 93 8d be
       0.23307374 0.13141279 0.10172659 -0.2765159
000040 d7 f1 54 bd f2 5e 9e 3e d1 b7 54 be 4a 58 8d 3d
       -0.05198845 0.30931813 -0.20773245 0.069016054
000050 de ee 93 be e9 b2 ac be 79 25 a8 be 31 b1 b8 3e
       -0.2889318 -0.33730248 -0.3284109 0.36072686
000060 f4 fb a7 be 72 18 36 be a7 56 a4 be 73 dd 37 bd
       -0.32809412 -0.17782763 -0.3209736 -0.044888925
000070 fe a5 0c 3f 31 7f 09 be 49 51 9c bd 82 25 38 3e
       0.54940784 -0.13427426 -0.076326914 0.17983058
000080 b5 c3 55 be 75 2b d8 3e ad 38 fd bd a6 b3 92 3e
       -0.20875438 0.42220655 -0.12364326 0.28652686
000090 da 09 f7 bd a5 4d 9b 3e e0 47 9a bd 85 dc 76 bd
       -0.12062426 0.30332676 -0.0753324 -0.060268898
0000a0 04 64 f6 3e 08 6e 21 be 67 f4 a2 3d e7 c6 d4 3e
       0.4812318 -0.1576463 0.07956772 0.41558
0000b0 3e 23 c8 3e 2a f1 78 3d 5f 35 97 3e 50 8a 89 3e
       0.39089388 0.060776867 0.29532906 0.26863337
0000c0 ac 49 7d be d6 94 a8 3e 6d 27 92 3e 8f 4e 23 bd
       -0.24735135 0.32926053 0.28545704 -0.03986984
0000d0 77 bf 7d 3e 31 65 16 be 0d 23 e6 bd f4 f2 b4 bd
       0.2478007 -0.14687039 -0.11237154 -0.08835402
0000e0 37 e0 c9 bd 93 ff 4e 3d c8 bb 0d 3e 93 b4 9f 3d
       -0.09857219 0.050536703 0.13841164 0.07798114
0000f0 a1 8c b3 3e e0 ca 79 3d a9 74 b1 3e 08 c8 91 be
       0.3506823 0.060984492 0.34659317 -0.28472924
000100 4b 1f 46 3e ae da f3 bd 6c 52 68 be df 7f 15 3e
       0.19347875 -0.11906944 -0.22687691 0.1459956
000110 47 80 07 3e fc 11 d2 3e fd 2e 06 3f 14 78 d4 be
       0.13232528 0.41029346 0.5241545 -0.41497862
000120 07 5b 21 3f 96 c0 0b 3f 01 7f dd 3d 55 f2 3c 3f
       0.6302952 0.5459074 0.1081524 0.7380727
000130 ac fc c3 3e 3d 78 3e 3f db f5 b6 be 37 96 07 bf
       0.3827871 0.7440222 -0.35734448 -0.52963585
000140 bf dd 2d be 2f c2 d2 bd 4e 30 0b bf f2 87 bd be
       -0.1697912 -0.10290944 -0.5437058 -0.3701778
000150 cd 03 80 be 42 54 82 3e 7d 61 84 3e e4 d7 6f be
       -0.250029 0.2545491 0.25855628 -0.234222
000160 65 60 c4 3e 63 6c a9 3d 7a 64 ce be b8 8d c8 3e
       0.38354793 0.08272626 -0.40311033 0.39170623
000170 0b a1 16 3f 50 97 f7 3e 01 ba 20 3f 7f e1 0a 3f
       0.5883948 0.4835763 0.6278382 0.5425033
000180 ea aa 1c 3f 81 fc bc 3e eb 64 93 be 77 54 15 3f
       0.61198294 0.36911395 -0.28787932 0.5833201
000190 3c 10 13 3f 87 86 1c bf f0 a8 12 3f d6 42 05 bf
       0.57446647 -0.6114277 0.5728903 -0.5205511
0001a0 2d df 19 3f 42 25 93 be c0 ef dc 3e 9c 28 8e 3e
       0.60106164 -0.28739363 0.43151665 0.27765357
0001b0 e3 7e be 3e f6 4f 15 3f 16 1e 04 3f 0e b2 1b 3f
       0.37206182 0.58325136 0.5160841 0.60818565
0001c0 72 18 83 be dc d4 c8 be 15 0a a6 be 21 8a 75 3e
       -0.25604588 -0.392249 -0.32429567 0.23978473
0001d0 fc 5f 0d 3f cd 02 eb 3e 5f da ad 3e 1e d9 83 be
       0.55224586 0.45900574 0.33955666 -0.25751585
0001e0 73 34 b7 3e 86 c2 3e bd 92 9a c0 be 07 4a e5 3e
       0.35782203 -0.04657223 -0.37617928 0.4478304
0001f0 4d c9 d9 3e f9 6e b3 3e ee 2c af 3e f9 0d 02 bf
       0.42536393 0.35045603 0.34213966 -0.5080257
000200 0e 19 80 be d4 d3 df 3d b2 70 48 bd 93 91 cf 3e
       -0.25019115 0.10929075 -0.0489356 0.40540752
000210 51 15 2c be 40 a4 2f 3f cb 19 46 be cd fa 28 3e
       -0.16805007 0.6861 -0.19345777 0.16501923
000220 59 7a f6 3e d1 50 82 3e 17 b0 f9 3e e7 1e 90 be
       0.4814022 0.25452283 0.48767158 -0.28148577
000230 29 0f 24 b9 0e ec 0e 3f 18 83 23 be 4f 7a 88 bd
       -0.00015645906 0.5582894 -0.15967977 -0.066639535
000240 8a 55 99 be 14 8d 14 3f eb 98 83 3e 4c 00 b6 be
       -0.29948074 0.5802777 0.25702605 -0.35547101
000250 8e 5e 9d 3e 21 0d d3 3e 8d 09 20 3c b9 bf 1f be
       0.30736202 0.41220954 0.009767902 -0.1560048
000260 a0 dc 0a 3f 55 d7 af 3e df 76 0c 3f 1f a6 d1 be
       0.542429 0.34343973 0.5486888 -0.40947053
000270 c4 e3 13 be eb 6c c0 bd 10 18 c2 be 90 82 66 be
       -0.14442354 -0.093957745 -0.37908983 -0.22510743
000280 b1 18 d7 3e 28 b5 9d be 5a a2 d2 be 5a 19 3f 3e
       0.42011026 -0.30802274 -0.4113949 0.18662015
000290 df 9d d0 be ca 15 09 be 2e e9 a6 3c ea 9b 9b be
       -0.40745446 -0.13387218 0.02037486 -0.3039239
0002a0 8c bc e8 3e 0d d9 36 be 35 a2 e3 bb 30 df af 3e
       0.4545635 -0.17856236 -0.006946827 0.34349966
0002b0 20 4b 94 be 1b 93 30 be c8 18 a8 bd ef 5f ab 3e
       -0.28963566 -0.17243616 -0.08207852 0.3347163
0002c0 7c 98 05 be 3b 4b 80 3e 8d 43 a4 3c f9 92 45 be
       -0.1304645 0.25057396 0.020051742 -0.19294347
0002d0 2c 68 af 3e 5d d9 93 be aa ae c4 3e b7 a1 eb bd
       0.34259164 -0.28876773 0.38414508 -0.11505454
0002e0 7d 86 de 3e e2 99 a6 be 8a 1c 09 3e d2 97 e6 3e
       0.4346198 -0.32539278 0.13389793 0.45037705
0002f0 17 03 9a be cf cd b6 3e 52 b8 37 3e bd 71 dc 3d
       -0.30080482 0.35703894 0.17941406 0.10763881
000300 2f 78 c4 bd 52 22 69 be 95 ed 68 3d b9 40 50 be
       -0.09593236 -0.22766998 0.0568672 -0.2033719
000310 fa d8 a9 bd 54 87 02 3f 80 97 a5 3e a9 47 80 be
       -0.08293338 0.50987744 0.32342148 -0.25054672
000320 36 90 0a 3f 35 32 a1 3d d5 c7 d6 bd 12 2e 08 bf
       0.541263 0.07870904 -0.10487334 -0.531953
000330 1f c9 99 bd c9 a2 a4 3c a7 fd ba be 67 f3 7b 3e
       -0.07509064 0.020097153 -0.36521646 0.2460457
000340 34 fa d3 3e 71 b5 9e 3e e2 5f ce 3e 95 eb 9d bd
       0.41401827 0.30997804 0.40307528 -0.07710949
000350 6c 40 3e 3f 72 5b fe bd 25 e6 82 be 41 a2 2e 3f
       0.7431705 -0.124197856 -0.2556621 0.6821633
000360 fe d3 e1 3e f3 f1 e8 3d 8a e9 af be bd bf 7a 3e
       0.4410705 0.11374273 -0.34357864 0.24487205
000370 a1 aa 04 bf e6 e0 20 be d0 fc 3d 3e 99 59 f0 3d
       -0.5182286 -0.15710792 0.18553472 0.117358394
000380 81 ca 79 be 75 27 6e be 74 95 72 be b5 f7 5c be
       -0.24393655 -0.23257239 -0.23689824 -0.21578868
000390 67 31 32 be 19 9d 62 be a5 69 a3 bd 9c d8 54 be
       -0.17401658 -0.2213024 -0.079791345 -0.20785755
0003a0 1d 38 99 be f0 2c a1 3e ef 79 87 be fe af 73 be
       -0.29925624 0.31479597 -0.26460215 -0.23797604
0003b0 e2 a4 54 3f bd 14 49 be 42 ed c5 3e 9b 6b a0 3e
       0.8306409 -0.19636817 0.38657576 0.31332096
0003c0 ab bd 63 be fc dd 09 bf 28 91 21 be ca d4 02 bf
       -0.22240321 -0.53854346 -0.15778029 -0.5110594
0003d0 cc f5 8c 3e d4 54 46 3e 8e a3 6d be ac d1 e9 3e
       0.27531278 0.19368297 -0.23206922 0.4566778
0003e0 7d 69 00 3f 07 ed 3d 3f 0a 0b 8e 3e 48 5c b4 be
       0.5016096 0.741898 0.27742797 -0.35226655
0003f0 75 2a 80 be 68 51 d5 bd 00 14 57 3e 84 7c 55 be
       -0.25032392 -0.10415918 0.21003723 -0.2084828

l1.bias f4 [8]
000000 88 2a a8 3e 37 96 1b 3f 10 1a d8 3e 18 06 17 3f
       0.3284495 0.60776085 0.42207384 0.58993673
000010 67 a8 04 3f 1e 55 05 3f 17 4f 23 3f e3 95 13 3f
       0.5181946 0.52083004 0.63792557 0.57650584

l2.weight f4 [8, 8]
000000 ae df 1a bf c1 c2 40 3f 31 a4 ca be 04 c9 5d bf
       -0.6049756 0.7529717 -0.39578393 -0.8663485
000010 51 d5 9f 3f ab a2 5b 3f 21 6d 8a 3f 19 d1 1b bf
       1.2486974 0.85795087 1.0814553 -0.6086593
000020 b3 f7 85 3f b5 ed f1 3e 64 20 1b 3f f7 06 d2 3e
       1.0466217 0.4725167 0.605963 0.4102094
000030 06 d2 3e bf b5 a5 87 bf 3e 2a 53 3f 8c 6e 8e 3f
       -0.7453922 -1.0597445 0.8248633 1.1127486
000040 da 5c 9c 3d f4 cc d0 3c a2 d2 07 be 24 0c b3 be
       0.076348975 0.025488354 -0.13263944 -0.349702
000050 af c6 b4 bd f7 c1 82 be 0f 7d 3c 3e 36 06 a9 bd
       -0.088269584 -0.25538608 0.18407081 -0.08253138
000060 07 9f 26 3f 41 d4 4b 3f f3 bb 9e 3f df 96 9c 3f
       0.65086406 0.7962075 1.2401108 1.2233542
000070 fe 5b da be 8d 7f b2 3f 6a d7 db be 01 b4 98 3b
       -0.4264831 1.3945175 -0.42937785 0.00466013
000080 92 c8 73 3d 9e 58 72 3e e2 6c 3a bf 79 ab 5e bf
       0.05951745 0.23666617 -0.7282239 -0.86980397
000090 f1 f0 2f 3f d5 88 25 bf 6e 79 5e 3f 9c 0d 50 3f
       0.6872702 -0.64661914 0.86904037 0.81270766
0000a0 3c 3d 49 bd 08 e6 96 be 74 95 9c be 52 ee c1 bc
       -0.049130663 -0.29472375 -0.30582774 -0.02367321
0000b0 bc 76 9c 3e 8e ff 3a 3d c5 57 bd bd e1 df 94 be
       0.30559337 0.045653872 -0.09245256 -0.29077056
0000c0 27 ad 5a 3f 09 f8 80 bf f8 b0 00 3f 43 fd 76 3e
       0.8542046 -1.0075694 0.5027003 0.24120049
0000d0 a0 59 06 3f 91 16 80 be 32 a7 90 3e b5 8c 7f 3f
       0.52480507 -0.25017217 0.2825256 0.99824077
0000e0 0d ba 06 bf 79 8f cc 3f f6 85 1f bf 28 db 73 3f
       -0.5262764 1.5981284 -0.62313783 0.9525628
0000f0 37 8e 69 3c 24 d3 4d 3f d2 08 0a 3f 06 7d 80 be
       0.014255098 0.804003 0.5391971 -0.25095385

l2.bias f4 [8]
000000 82 85 f3 3e da 18 f1 3e db b9 8c be 63 d2 05 3f
       0.47562796 0.47089273 -0.27485546 0.5227415
000010 aa 93 85 bd 15 f9 f9 bd 17 68 05 3f 40 c4 f2 3d
       -0.06522305 -0.12205712 0.52111953 0.11853838

l3.weight f4 [8, 8]
000000 ed f7 19 bf 06 5b 16 bf d0 7e 5d 3e 16 04 f6 3e
       -0.6014393 -0.5873264 0.21630406 0.48049992
000010 69 8d a1 bf e7 1c a5 bd 3d bf 8b bf a4 2f 3e 3f
       -1.262128 -0.08062153 -1.0917736 0.74291444
000020 59 8e 8a bf a4 f5 0e 3f 22 1d 5b 3e 73 5b ed 3e
       -1.0824691 0.5584357 0.21397832 0.46358833
000030 8e 2c aa be 00 ef 4f be cc 36 28 bf 66 5b 83 3e
       -0.33237118 -0.20306015 -0.65708613 0.2565567
000040 43 5c b9 bf 2b 47 27 3f ee 08 08 3e a5 4b 39 3e
       -1.4481281 0.6534297 0.13284656 0.18095262
000050 fa 48 81 bf aa f4 aa be 81 36 20 3f 13 6a 8e bf
       -1.0100396 -0.3338979 0.62583166 -1.1126121
000060 75 2d 26 3f 9d c3 29 be 0c 89 69 be 81 ca ec be
       0.6491311 -0.16578527 -0.22806185 -0.46248248
000070 cf f7 43 bc 01 ae bd bd 51 f1 d0 bf 49 55 84 3e
       -0.011960938 -0.09261704 -1.6323644 0.25846317
000080 87 1b 00 3f 5c d3 8c bf 3a 3d a0 bc aa ca 8d bd
       0.50042003 -1.1002002 -0.019560445 -0.06923421
000090 cf be 35 bf a3 36 8d 3e c2 fd c8 bf ef 90 09 3f
       -0.70994276 0.27580747 -1.5702441 0.53736776
0000a0 a0 ef cc 3d 11 28 97 3e 3b b9 36 bd 28 35 8f bf
       0.10006642 0.29522756 -0.044610243 -1.1188097
0000b0 af c6 ef 3e 0f ea 1b be 45 31 51 be c2 08 c7 bd
       0.4683127 -0.15226005 -0.20428951 -0.09718467
0000c0 f5 64 1e bf 51 3b bb 3e cd de 13 3e 54 a9 7b bf
       -0.618728 0.36568692 0.1444046 -0.9830525
0000d0 75 72 06 3f a2 6e 95 be b5 17 48 3f 7c 8c ca bf
       0.525184 -0.2918597 0.78161174 -1.5824122
0000e0 f3 15 93 3e 0b 95 4b bf 9a 3c 9b 3d d8 89 c2 3e
       0.28727683 -0.79524297 0.07579918 0.3799579
0000f0 d4 80 89 bf 11 47 6f be 12 fe 9a 3e a6 7a cc be
       -1.074244 -0.23366953 0.30271965 -0.39937323

l3.bias f4 [8]
000000 38 e3 0e 3d aa 58 24 be 9d 3d c8 3e 00 27 43 be
       0.03488466 -0.16049448 0.39109507 -0.19057846
000010 c4 4c 6e 3e e3 13 93 be 64 05 4e be 29 a7 e8 3e
       0.23271471 -0.2872611 -0.20119244 0.45440033
